testing-data/model.onnx (onnx, 4221 bytes, 10 tensors)

stack.0.bias f4 [14]
0	0xbee70b93	-0.45126018
1	0xbe5dbfcc	-0.21655196
2	0x3ef2c03d	0.4741229
3	0xbf8b8777	-1.0900716
4	0x3c50ac23	0.012736353
5	0x3ed0b0e2	0.4075995
6	0xbf2e44b5	-0.6807359
7	0xbe4ee164	-0.20203167
8	0x3f35bd88	0.70992327
9	0xbe873b3c	-0.2641238
10	0xbf94e589	-1.1632549
11	0xbf44d9ce	-0.76894844
12	0xbf112cfe	-0.5670928
13	0x3b48c81d	0.0030636855

stack.2.bias f4 [13]
0	0x3c2383ac	0.0099801235
1	0xbf77cf7b	-0.96800965
2	0xbfc247da	-1.5178177
3	0xbf7bac10	-0.9830942
4	0xbe8bb695	-0.27287737
5	0xbf8ed078	-1.115737
6	0xbf48566c	-0.7825687
7	0x3f5a84d5	0.85358936
8	0x3f8d83f5	1.1055895
9	0x3ebdc321	0.37062934
10	0x3ee19352	0.4405771
11	0xbf5601a1	-0.83596236
12	0x3c86871c	0.016421847

stack.4.bias f4 [12]
0	0x3f182e13	0.59445304
1	0x3e151bfc	0.14561456
2	0x3e2f1589	0.17098059
3	0xbe0b0171	-0.13574769
4	0xbf3e8401	-0.7442017
5	0x3ee44c83	0.44589624
6	0xbf08e97c	-0.5348127
7	0xbe5139d1	-0.20432211
8	0x3f78b59d	0.9715212
9	0x3e2eea48	0.17081559
10	0xbf0f22c8	-0.55912447
11	0xbf182163	-0.59425944

stack.6.bias f4 [24]
0	0x3f79d183	0.97585315
1	0x3e9f4fe4	0.3111564
2	0xbf6313d0	-0.88702106
3	0x3f9c2529	1.219884
4	0x3f34b9b4	0.7059586
5	0x3db943b3	0.09046116
6	0xbefe06c4	-0.49614537
7	0x3f44e52e	0.769122
8	0xbe06a4ff	-0.13148879
9	0x3dd65d17	0.10466974
10	0x3e1e80ae	0.15478775
11	0xbf124a29	-0.5714441
12	0x3f62d015	0.8859876
13	0xbdba3188	-0.090914786
14	0x3f83214b	1.0244535
15	0x3d21c23b	0.039491873
16	0xbf0e445d	-0.55573064
17	0xbe3f08b6	-0.18655667
18	0x3fa55eff	1.2919616
19	0x3f471008	0.77758837
20	0xbe772a37	-0.24137197
21	0xbf109bda	-0.5648781
22	0x3f8053f8	1.0025625
23	0xbeaf55da	-0.34245187

stack.8.bias f4 [3]
0	0xbd9ab69e	-0.07554363
1	0xbf36530f	-0.7122049
2	0xbdb61034	-0.08889809

34 f4 [4, 14]
0	0xbd8f2ef2	-0.06991376
1	0x3f384107	0.71974224
2	0x3f9d88d7	1.2307385
3	0x3e2f5eaf	0.17125963
4	0x3f07dbb2	0.53069603
5	0x3f534dbc	0.8254049
6	0x3f890d3f	1.0707167
7	0xbec737e9	-0.38909844
8	0x3f5d24b6	0.8638414
9	0xbbee52f0	-0.0072730705
10	0xbd8d1ba0	-0.06890035
11	0x3f0cda58	0.55020666
12	0x3e839912	0.2570272
13	0xbf3850b8	-0.7199817
14	0xbf03b629	-0.5144983
15	0xbef7942d	-0.48355237
16	0xbf6c7be9	-0.9237657
17	0x3e25113e	0.16119859
18	0xbbc347f1	-0.005959504
19	0x3f064d98	0.5246215
20	0x3f81b723	1.0134014
21	0xbe7a0a4b	-0.24417989
22	0x3f1a17d2	0.60192597
23	0xbf2abd4b	-0.6669509
24	0xbd99e225	-0.07513837
25	0xbee6a5fe	-0.45048517
26	0x3d3ac7cc	0.045600697
27	0x3e36e007	0.17858897
28	0x3dfc3582	0.12314893
29	0xbed0dc2e	-0.40792984
30	0xbf6cf8ee	-0.92567337
31	0xbf31057a	-0.6914898
32	0xbdd5d944	-0.10441831
33	0x3e912516	0.28348607
34	0x3eb0b671	0.34514192
35	0xbf2a6c89	-0.6657186
36	0x3e8796c1	0.26482204
37	0xbeda749a	-0.42667085
38	0x3f415f3a	0.7553593
39	0xbe829689	-0.25505474
40	0x3f4accf9	0.79219013
41	0x3f4b5651	0.79428583
42	0xbd51565f	-0.05110776
43	0xbf20a586	-0.6275257
44	0x3f49c727	0.7881951
45	0xbe848577	-0.25883076
46	0xbf29cc28	-0.6632714
47	0x3f182f5e	0.59447277
48	0xbf2d146b	-0.6760928
49	0x3ec247da	0.37945443
50	0x3f10c5bd	0.56551725
51	0xbd92a9f8	-0.07161325
52	0x3d271969	0.040795717
53	0xbf903bd4	-1.1268258
54	0x3ef953e3	0.48696813
55	0x3eac09c8	0.33601213

35 f4 [14, 13]
0	0x3eeedae9	0.4665139
1	0xbf231a1f	-0.6371173
2	0x3d8e5ec5	0.069516696
3	0xbf5e61d7	-0.8686804
4	0x3f4fbfc2	0.81151974
5	0x3dbee27d	0.09320543
6	0xbe1504b4	-0.14552575
7	0x3f4a8756	0.79112756
8	0x3f2d34d0	0.6765871
9	0xbbdc6160	-0.006725475
10	0xbe9a0cb0	-0.30087805
11	0x3fac9d36	1.3485477
12	0xbdb98d7c	-0.09060189
13	0xbeb803df	-0.35940453
14	0xba24f575	-0.00062926795
15	0x3f23085f	0.6368465
16	0x3edc123b	0.4298266
17	0x3f0262ad	0.5093182
18	0xbc2d516f	-0.010578497
19	0xbdaea9af	-0.08528458
20	0xbe5add03	-0.21373372
21	0x3f5491b9	0.83034855
22	0x3f936287	1.1514443
23	0x3f1ab114	0.6042645
24	0xbf284a21	-0.6573811
25	0x3f43e7b8	0.7652545
26	0x3c3160ac	0.010826271
27	0xbf90df6e	-1.1318185
28	0xbf29a970	-0.66274166
29	0x3f1a6fa6	0.6032661
30	0x3e134888	0.14383137
31	0xbf0a281c	-0.5396745
32	0xbe35e33d	-0.17762466
33	0x3f051411	0.51983744
34	0xbd006c2c	-0.03135316
35	0x3ebaf1d2	0.3651262
36	0xbf2b6ecc	-0.6696594
37	0x3f4d90c5	0.80299026
38	0xbf1257da	-0.571653
39	0xbe0d5e65	-0.1380554
40	0x3d370c32	0.044689365
41	0xbf085dee	-0.53268325
42	0x3ef54d8a	0.4791072
43	0x3eb46941	0.35236552
44	0xbf816663	-1.0109371
45	0xbeca5765	-0.39519802
46	0x3f2fdcdc	0.6869638
47	0x3e8fe403	0.28103647
48	0x3c0fa920	0.00876835
49	0xbdf9de13	-0.122005604
50	0x3fb5e574	1.4210649
51	0xbf291488	-0.66046953
52	0x3f60cb3b	0.87810105
53	0xbccb22ad	-0.024796808
54	0xbd8bb173	-0.06820955
55	0x3f8d806c	1.1054816
56	0xbf7d226b	-0.9888064
57	0x3e525a07	0.20542155
58	0x3f908f95	1.1293818
59	0xbf578997	-0.8419432
60	0x3eee8b32	0.46590573
61	0xbf9ebee2	-1.2402003
62	0xbed6e901	-0.41974643
63	0xbf75f1b6	-0.96071947
64	0xbf199c5a	-0.600042
65	0xbdcc5c12	-0.099784985
66	0xbf1b8719	-0.6075302
67	0x3efe5e66	0.49681395
68	0x3f8cab0d	1.09897
69	0xbf54a55e	-0.8306483
70	0x3d62b201	0.05534554
71	0x3f482948	0.7818799
72	0xbef30abc	-0.47469127
73	0xbf048b54	-0.517751
74	0x3fbc6241	1.4717485
75	0xbf5a35d0	-0.8523836
76	0x3fa9c5f8	1.326354
77	0xbeec1272	-0.46107823
78	0x3c7427f5	0.014902105
79	0x3e7ab311	0.24482371
80	0xbe1277e2	-0.14303544
81	0xbfa489f6	-1.2854602
82	0xbf40f9c5	-0.7538112
83	0xbf8b8e32	-1.090277
84	0xbef46118	-0.47730327
85	0xbd12a580	-0.035802364
86	0xbed3b7ca	-0.41351157
87	0xbe163551	-0.14668776
88	0x3f0f4ff8	0.559814
89	0xbe7ea8ff	-0.24869154
90	0xbe0e31ce	-0.13886186
91	0xbf0ae37d	-0.5425337
92	0xbea2f411	-0.31826833
93	0x3eca9d2c	0.39573038
94	0x3efbb403	0.49160776
95	0x3f315daa	0.69283545
96	0x3f822805	1.0168463
97	0xbedc0156	-0.4296977
98	0xbefc3d7e	-0.49265665
99	0xbf952425	-1.1651655
100	0x3f9e5381	1.2369233
101	0x3e41b142	0.18915275
102	0xbeb4e3db	-0.3533009
103	0xbeeece4a	-0.4664176
104	0x3f0bef10	0.54661655
105	0x3dcf2dcc	0.10116157
106	0xbebfd6f2	-0.37468678
107	0x3e2f42b9	0.17115296
108	0x3f14bedf	0.58103746
109	0xbf83ff67	-1.0312318
110	0xbf7a1cb9	-0.9770008
111	0xbf50ef60	-0.8161526
112	0xbefb9e68	-0.49144292
113	0xbf95724f	-1.1675509
114	0xbe801500	-0.25016022
115	0x3ebafd6f	0.3652148
116	0x3fccec1c	1.6009555
117	0x3e511a2e	0.20420143
118	0xbf3fec18	-0.74969625
119	0xbeac5dfa	-0.33665448
120	0x3f0a9955	0.54140216
121	0xbf1a2a8a	-0.6022116
122	0x3f6766a5	0.90391
123	0xbe8a1bcc	-0.26974332
124	0x3ec041f1	0.3755031
125	0x3f4af0a2	0.79273427
126	0x3f906852	1.1281836
127	0xbf5fb920	-0.87391853
128	0x3e2f34d2	0.17109993
129	0xbf3c7e7c	-0.736305
130	0x3f46c646	0.7764629
131	0xbe8f9ee1	-0.28050902
132	0x3eb2f3fe	0.34951776
133	0xbea58d8e	-0.3233456
134	0xbd37b92e	-0.044854335
135	0x3d7e26c2	0.06204868
136	0x3f4802b7	0.7812914
137	0x3ec86f78	0.39147544
138	0xbdb4b2d8	-0.08823174
139	0xbe45b12c	-0.19305867
140	0xbf5daf1e	-0.8659533
141	0x3e1300e7	0.14355813
142	0xbf8842a0	-1.0645332
143	0x3c8b47f8	0.01700209
144	0xbf558fb7	-0.83422416
145	0x3e2758b2	0.16342428
146	0xbf3ad5ff	-0.7298278
147	0x3fa30579	1.2736045
148	0x3f02ccaa	0.5109354
149	0x3f9359ba	1.1511757
150	0x3eb5dc8e	0.35519832
151	0x3f6d1495	0.9260953
152	0x3f5c36da	0.86021197
153	0xbceefa29	-0.02917202
154	0x3f3255a7	0.69661945
155	0x3df6e1e5	0.12054805
156	0x3f040bcd	0.51580507
157	0xbeb06afc	-0.34456623
158	0x3f956979	1.1672813
159	0x3f3adfff	0.7299804
160	0xbf022362	-0.5083524
161	0xbeaf1b8a	-0.34200698
162	0xbec204c4	-0.3789426
163	0x3f44a465	0.76813346
164	0x3e999e5b	0.30003628
165	0x3e72a31d	0.23695035
166	0x3f7a1d3c	0.9770086
167	0xbe8eac55	-0.27865854
168	0xbf5a8f87	-0.85375255
169	0xbf0580bb	-0.5214955
170	0x3f308020	0.68945503
171	0x3ec09050	0.37610102
172	0x3fb84b6c	1.4398017
173	0x3d9ca74f	0.07649099
174	0x3f269923	0.6507742
175	0x3f4a72f0	0.7908163
176	0x3f230021	0.6367207
177	0x3e1d386a	0.15353552
178	0x3f4632ce	0.7742127
179	0x3eea22ef	0.45729777
180	0xbf11fa22	-0.570223
181	0xbf9cc1e3	-1.224667

36 f4 [13, 12]
0	0x3f927bb1	1.1443998
1	0x3f3a9f8a	0.7289969
2	0x3fa0f937	1.2576054
3	0xbca6c52d	-0.020357693
4	0x3d6306e7	0.055426504
5	0x3fa39863	1.278088
6	0xbd0b589c	-0.03402005
7	0xbe5a2d1d	-0.21306272
8	0x3f5cb12a	0.8620783
9	0xbf704c25	-0.9386619
10	0x3f8e9869	1.1140262
11	0x3f41eaec	0.7574909
12	0x3d7838a1	0.06060088
13	0xbd5815e9	-0.05275527
14	0x3f828b47	1.0198754
15	0xbed92b40	-0.4241581
16	0xbf100f6d	-0.5627354
17	0x3eb85de4	0.36009133
18	0xbf162c62	-0.5866147
19	0x3d45bb6b	0.04827444
20	0x3f418ae8	0.7560258
21	0x3f694db5	0.91134197
22	0xbfa05da5	-1.2528578
23	0xbf88c0a9	-1.0683795
24	0x3ecb4d4c	0.3970741
25	0x3f46ba56	0.77628076
26	0xbdf08ff5	-0.117462076
27	0xbf766d25	-0.9626029
28	0xbe5603a5	-0.20899828
29	0x3e9650d6	0.29358548
30	0x3f8858f4	1.0652146
31	0xbf08ba48	-0.5340924
32	0x3f43e0fc	0.76515174
33	0xbca5f037	-0.020256145
34	0x3fa329bb	1.274711
35	0x3f73a2b9	0.9517017
36	0xbf162395	-0.58648044
37	0xbe3ebbe9	-0.1862637
38	0x3edd8c1a	0.43270952
39	0xbde6b4ab	-0.112649284
40	0xbe07558d	-0.13216229
41	0xbfe480a2	-1.7851756
42	0x3f62fa97	0.8866362
43	0xbf0c8a07	-0.54898113
44	0x3e23c078	0.1599139
45	0x3f5424d0	0.8286867
46	0xbee09230	-0.43861532
47	0xbded21fb	-0.11578747
48	0xbf18d595	-0.597009
49	0x3f9a86df	1.2072409
50	0x3f7c28f9	0.9850002
51	0xbe5a944c	-0.21345633
52	0xbe9deda5	-0.3084537
53	0x3fbe999f	1.4890631
54	0xbf28b61f	-0.65902895
55	0xbc97d070	-0.018532008
56	0x3e47970c	0.19491214
57	0xbf827357	-1.0191449
58	0x3f2c0c60	0.6720638
59	0x3f2fca69	0.6866823
60	0x3dbb1cb3	0.09136333
61	0xbf3a12af	-0.7268476
62	0x3f63cf80	0.88988495
63	0xbe131ffc	-0.1436767
64	0xbf9168c9	-1.1360103
65	0xbdce20ea	-0.100648716
66	0x3f6d2b7a	0.92644465
67	0xbe90af73	-0.28258857
68	0xbeef67be	-0.46758837
69	0x3c043457	0.008069119
70	0xbfc27a3d	-1.5193554
71	0x3eacd9ea	0.33760005
72	0x3e48c5ed	0.19606753
73	0xbf6b0bbf	-0.918148
74	0xbf9890f6	-1.1919239
75	0xbf04a147	-0.5180859
76	0x3f7ce7e5	0.9879134
77	0x3f0d6595	0.55233127
78	0xbf1125c2	-0.5669824
79	0xbec8ffb9	-0.392576
80	0xbd87bf4b	-0.06628283
81	0x3e1e4203	0.15454869
82	0xbf945375	-1.1587969
83	0x3f5f33ff	0.87188715
84	0x3f443397	0.7664122
85	0xbeab61bc	-0.33473003
86	0x3f178511	0.5918742
87	0xbf73a768	-0.95177317
88	0xbed50ffd	-0.4161376
89	0x3eaa4e2d	0.33262768
90	0x3f5b717d	0.85720044
91	0x3e6b982e	0.2300727
92	0x3e10d281	0.14142801
93	0x3e15075d	0.1455359
94	0xbd2d2ce7	-0.04227915
95	0x3f23ab6e	0.63933456
96	0x3d339b6b	0.04384939
97	0x3f454f51	0.7707415
98	0x3ed63460	0.41836834
99	0xbebe0d88	-0.371197
100	0x3f8e9534	1.1139283
101	0x3f30e673	0.6910164
102	0xbe907ac3	-0.2821866
103	0xbd599eb9	-0.053129885
104	0xbf2f91bb	-0.6858174
105	0x3ebf8c72	0.3741184
106	0x3dc7b17f	0.097506516
107	0xbf7fb456	-0.99884546
108	0xbf28d0d6	-0.6594366
109	0x3e43ad5d	0.19109102
110	0xbea69039	-0.32531908
111	0xbf1f9768	-0.623404
112	0xbfedb94a	-1.8572171
113	0x3ec7df4c	0.3903755
114	0x3ec52e52	0.38511902
115	0xbf9beec9	-1.2182246
116	0xbea7e7fd	-0.3279418
117	0xbf9698e4	-1.1765409
118	0xbf59f9b1	-0.85146624
119	0x3fbfd2dc	1.4986224
120	0xbf071390	-0.52764225
121	0xbefd8c80	-0.49521255
122	0x3d09fe65	0.033689875
123	0xbed03be5	-0.40670696
124	0x3ee365e2	0.44413668
125	0x3f9546c2	1.1662219
126	0x3e301fbd	0.17199607
127	0x3f03e0d8	0.5151496
128	0xbf49df66	-0.78856504
129	0xbe8c0e34	-0.27354586
130	0x3fa42293	1.2823051
131	0xbd37335f	-0.044726726
132	0xbe752fde	-0.23944041
133	0xbe06bfdc	-0.13159126
134	0xbf3ccb59	-0.73747784
135	0x3f12e1d5	0.5737584
136	0x3d84a8fd	0.064775445
137	0xbe3b95d3	-0.18318872
138	0x3defc71f	0.11707901
139	0xbe136046	-0.14392194
140	0xbf7cec5f	-0.98798174
141	0x3e6cb621	0.23116352
142	0x3e2ab332	0.1666992
143	0xbeda3894	-0.4262129
144	0xbf02a78a	-0.51036894
145	0x3f9b67fd	1.214111
146	0x3d3199ea	0.043359675
147	0x3f081912	0.53163254
148	0xbf6c812f	-0.9238462
149	0x3f4d0bae	0.80095947
150	0x3fcd0906	1.6018379
151	0x3efdd3aa	0.4957555
152	0xbf27a401	-0.65484625
153	0xbe681c4b	-0.22667043
154	0xbf84ec08	-1.0384531
155	0xbf21601f	-0.63037294

37 f4 [12, 24]
0	0xbeabd9bb	-0.33564553
1	0xbf1ded7b	-0.6169049
2	0x3edd0e68	0.43175054
3	0xbf0103ad	-0.50396234
4	0xbf1be81e	-0.6090106
5	0xbf2834f2	-0.6570579
6	0xbf3931d0	-0.7234163
7	0xbf3f026e	-0.7461308
8	0x3f986adb	1.190761
9	0x3f4c3082	0.7976152
10	0x3f8b4b11	1.0882283
11	0xbf510605	-0.8164981
12	0xbd33afe2	-0.043868907
13	0xbee9d93b	-0.45673546
14	0xbf8d9931	-1.1062375
15	0x3ec6753f	0.38761327
16	0x3e96e352	0.29470307
17	0xbf7477ab	-0.954951
18	0xbe7a1eee	-0.24425861
19	0x3f87b5ba	1.0602334
20	0xbe5bf81c	-0.21481365
21	0xbfa92147	-1.321328
22	0x3f222188	0.63332415
23	0x3c8c1631	0.017100425
24	0x3f1eb1a8	0.6198983
25	0xbe0d4366	-0.13795242
26	0xbee051c0	-0.4381237
27	0xbd89574d	-0.067061044
28	0xbf84c1f8	-1.0371695
29	0xbf2c3d2d	-0.67280847
30	0xbe8c7a92	-0.27437264
31	0x3e78bbb7	0.24290358
32	0x3f8134b1	1.0094205
33	0x3ee4f4fc	0.44718158
34	0xbf88ea64	-1.069653
35	0x3e268516	0.16261706
36	0xbdab601c	-0.08367941
37	0xbf0c8cc8	-0.54902315
38	0x3f4f28e3	0.80921763
39	0xbeff8ac3	-0.49910554
40	0x3f2ceb40	0.67546463
41	0xbf0316a5	-0.5120643
42	0x3fb0ad84	1.3802953
43	0x3f54d037	0.8313021
44	0x3eaeea3a	0.34163076
45	0xbf866dcd	-1.0502259
46	0x3fa63afb	1.298675
47	0x3f06141b	0.5237443
48	0xbf51bc68	-0.8192811
49	0xbfa1a2ca	-1.2627804
50	0xbe824853	-0.25445804
51	0xbe7db602	-0.24776462
52	0x3f7656a4	0.96225953
53	0x3f610d6f	0.87911123
54	0xbfdf4bac	-1.7444968
55	0x3ec6fe3f	0.3886585
56	0xbf0a40eb	-0.54005307
57	0xbf8c99b9	-1.0984412
58	0xbf88e504	-1.069489
59	0xbfa27fbd	-1.2695233
60	0xbf27a39b	-0.6548402
61	0x3f0cc1eb	0.54983395
62	0x3f4284ce	0.75983894
63	0xbd00ec8e	-0.031475596
64	0xbe21bd6e	-0.15794918
65	0xbf493125	-0.78590614
66	0x3e5f4694	0.21804267
67	0xbf6e4618	-0.93075705
68	0xbbaa8144	-0.005203398
69	0xbf77f58a	-0.9685904
70	0x3f030682	0.51181805
71	0xbee71a61	-0.45137313
72	0xbe9a8ffd	-0.3018798
73	0xbf792008	-0.973145
74	0xbefde909	-0.49591854
75	0x3ee1c3fb	0.44094834
76	0x3f5b4692	0.85654557
77	0x3cd9fa4b	0.026608607
78	0xbfa5e267	-1.2959718
79	0xbf38df9e	-0.7221621
80	0x3ea8d684	0.32976162
81	0x3f1bbfd3	0.60839576
82	0x3f51a12b	0.8188655
83	0x3f279e05	0.65475494
84	0xbdd79f09	-0.105283804
85	0x3f5d93c4	0.865536
86	0xbf24d1cf	-0.6438264
87	0x3f4aaf2e	0.79173553
88	0x3fac7bcc	1.347528
89	0xbf674f57	-0.9035544
90	0x3e884ea6	0.26622504
91	0x3f9827e6	1.1887176
92	0xbe1bd7f8	-0.15219104
93	0x3fb696b8	1.4264746
94	0xbc3b57d8	-0.011434518
95	0xbf797162	-0.97438633
96	0xbef90a46	-0.4864065
97	0x3f961834	1.1726136
98	0xbf7d90fe	-0.99049366
99	0xbef914ad	-0.48648587
100	0xbfa6e5db	-1.3038896
101	0xbf04ad4d	-0.51826936
102	0x3ec1d308	0.37856317
103	0xbf3ba844	-0.7330363
104	0xbe653df1	-0.2238691
105	0x3e06ea0d	0.13175221
106	0xbe73b57b	-0.23799698
107	0xbd827657	-0.06370228
108	0x3f08c650	0.534276
109	0xbf6d9c14	-0.9281628
110	0x3f25ef36	0.6481813
111	0x3edb597d	0.42841712
112	0xbe06ed0c	-0.13176364
113	0xbf8a6b5d	-1.0814015
114	0xbf083c81	-0.5321732
115	0xbf528f44	-0.82249856
116	0xbf11be28	-0.5693078
117	0xbfaef833	-1.3669494
118	0xbef65464	-0.4811126
119	0x3c89af69	0.016807275
120	0xbf9f34f9	-1.2438041
121	0x3f41be47	0.75680965
122	0xbf30eb5b	-0.69109124
123	0xbdb8ffe3	-0.090331815
124	0x3d27c2c6	0.040957235
125	0x3f1585e4	0.58407426
126	0xbf71f0c6	-0.94508016
127	0xbf2500f1	-0.6445456
128	0xbf170cce	-0.59003913
129	0xbf6d0e85	-0.9260028
130	0xbf346577	-0.70467323
131	0xbf099e7c	-0.5375745
132	0x3fa455ef	1.2838725
133	0x3d3bae75	0.045820672
134	0xbf53d53e	-0.82747257
135	0xbf2f5e29	-0.6850305
136	0x3f5815db	0.8440835
137	0x3d23a685	0.039953727
138	0xbea3c5ed	-0.31986943
139	0xbf8171f5	-1.0112902
140	0xbf47c7a9	-0.7803903
141	0xbf783ced	-0.96967965
142	0xbf201009	-0.6252447
143	0xbf1013e5	-0.56280357
144	0x3f46d9ec	0.7767627
145	0xbfae513a	-1.3618538
146	0xbf089f76	-0.5336832
147	0xbf29100b	-0.66040105
148	0xbf2c6d1b	-0.6735398
149	0x3e9024a6	0.2815296
150	0xbf3e51d5	-0.74343616
151	0xbf997879	-1.198989
152	0x3e81919c	0.25306404
153	0x3f1cd17a	0.61257136
154	0xbedccc02	-0.43124396
155	0xbf46779d	-0.77526265
156	0x3e8b38d6	0.271918
157	0xbf63a43e	-0.8892249
158	0xbf275642	-0.65365994
159	0xbe9f301e	-0.31091398
160	0x3ea8b1e4	0.3294822
161	0x3f4954d7	0.7864508
162	0x3f8f29ac	1.1184592
163	0x3f0f6459	0.56012493
164	0xbf295c2c	-0.6615627
165	0xbf9f8c63	-1.2464718
166	0x3f5b4705	0.8565524
167	0x3e8eeceb	0.2791513
168	0xbe96845e	-0.29397863
169	0x3f2519e9	0.6449266
170	0x3f95960a	1.1686413
171	0x3fe76a83	1.807938
172	0xbf019f5d	-0.50633794
173	0x3dcc0765	0.09962348
174	0xbf07baf8	-0.53019667
175	0xbede5679	-0.43425348
176	0x3f06f828	0.52722406
177	0x3fa31150	1.2739658
178	0x3edb0957	0.42780563
179	0xbf814544	-1.0099263
180	0xbfb6f678	-1.4293966
181	0x3f4f494f	0.80971235
182	0x3dcafad3	0.09911122
183	0x3ec45b32	0.38350827
184	0x3f3007e6	0.6876205
185	0x3d8607ed	0.065444805
186	0x3f771c44	0.96527505
187	0x3f08a1d8	0.53371954
188	0xbfa9d985	-1.3269507
189	0xbf2602e4	-0.6484816
190	0xbf76f7f3	-0.9647209
191	0x3eed052d	0.4629301
192	0x3ef94d72	0.486919
193	0x3e109736	0.14120182
194	0xbe84741a	-0.25869828
195	0x3eeea543	0.4661046
196	0xbf81b0e8	-1.0132113
197	0x3fa4deb6	1.2880466
198	0xbec6909c	-0.38782203
199	0xbf80b449	-1.0055019
200	0x3f80915e	1.0044363
201	0xbed48044	-0.4150411
202	0x3f0cfb0a	0.55070555
203	0x3f31a35c	0.6938989
204	0x3f2cfd98	0.67574453
205	0xbf0f1cc6	-0.5590328
206	0x3f118bcf	0.56853956
207	0xbdc463bd	-0.09589336
208	0xbf2f8680	-0.68564606
209	0x3ea4646b	0.32107863
210	0x3eb4eeb5	0.3533837
211	0xbfa4bf78	-1.2870932
212	0x3f27abba	0.6549641
213	0x3e2aaf8c	0.16668528
214	0x3d8a885c	0.0676429
215	0xbf3e42c4	-0.74320626
216	0x3f90373a	1.1266854
217	0x3ef4ec57	0.47836563
218	0xbd6a7fbf	-0.057250734
219	0x3d9fce3b	0.07803007
220	0x3f6bad30	0.9206114
221	0x3f41e0e8	0.75733805
222	0x3f6c197b	0.9222638
223	0x3f941dd0	1.1571598
224	0x3f0e0195	0.55471164
225	0xbe98f7f6	-0.2987668
226	0x3ebcb727	0.36858484
227	0x3e4d8f7c	0.20074266
228	0xbe993e36	-0.29930276
229	0x3f045780	0.51696014
230	0xbf9f2d14	-1.2435632
231	0x3db860a2	0.09002806
232	0xbf291ca2	-0.66059315
233	0xbe0ca711	-0.13735606
234	0x3edddaac	0.43330896
235	0x3e900666	0.28129882
236	0x3ef3117f	0.47474286
237	0xbf97c4df	-1.1856955
238	0x3f0cd28d	0.55008775
239	0x3f807564	1.0035825
240	0xbf9e5b86	-1.2371681
241	0x3f16e8bc	0.58948874
242	0x3dfb855d	0.122812964
243	0x3dd5b155	0.10434214
244	0x3efabbb2	0.48971325
245	0xbef4f5ed	-0.47843876
246	0x3f337382	0.70098126
247	0x3f651a78	0.89493513
248	0x3ea3aff3	0.31970176
249	0xbc7ec3b3	-0.015549588
250	0xbf810ca3	-1.0081981
251	0x3e9648c0	0.2935238
252	0xbee487c2	-0.44634825
253	0xbe63192b	-0.2217757
254	0x3e2a44d4	0.16627818
255	0x3c7328b7	0.01484125

38 f4 [24, 3]
0	0xbf324a04	-0.6964419
1	0x3e58c466	0.2116867
2	0xbd46fc51	-0.04858047
3	0x3f2cec02	0.6754762
4	0xbf084b13	-0.53239554
5	0xbf4e8eff	-0.80686945
6	0xbfa7fbbb	-1.3123697
7	0x3f35145d	0.70734197
8	0xbebad6f6	-0.36492127
9	0xbf5e12bb	-0.8674733
10	0xbf28af87	-0.65892833
11	0x3e182fb4	0.14861947
12	0x3f028c3d	0.50995237
13	0xbe36783f	-0.17819308
14	0xbfbbd210	-1.4673481
15	0x3f35d5bf	0.71029276
16	0x3f7c5467	0.9856629
17	0xbe585e0c	-0.21129626
18	0xbf2c3483	-0.67267627
19	0xbf6b62d0	-0.9194765
20	0xbe824aff	-0.25447842
21	0xbf078129	-0.5293146
22	0xbe1b8a57	-0.15189491
23	0x3f9512c8	1.1646357
24	0x3ec5b4ea	0.3861459
25	0xbed55654	-0.41667426
26	0xbebbc398	-0.36672664
27	0x3e73a5a1	0.23793651
28	0x3f0a9d6e	0.5414647
29	0x3f1dad05	0.6159213
30	0xbf78a173	-0.9712135
31	0xbebc1b6d	-0.36739674
32	0xbeb9e4ca	-0.36307365
33	0x3f22f2c1	0.63651663
34	0x3f3cd6cd	0.7376526
35	0x3f905ea7	1.1278886
36	0x3f09783f	0.53699106
37	0x3df7ad11	0.12093557
38	0xbf031b33	-0.5121338
39	0x3f314810	0.69250584
40	0xbef195b7	-0.47184536
41	0xbee0461a	-0.43803483
42	0x3fd6d0a3	1.6782421
43	0x3f9a3797	1.2048215
44	0x3f1b7675	0.60727626
45	0x3e4ca73a	0.19985667
46	0xbf944297	-1.1582822
47	0x3db74b3e	0.08949898
48	0x3dd6c0af	0.1048597
49	0x3e0e70f1	0.13910271
50	0xbf425f39	-0.7592655
51	0xbd522e37	-0.051313605
52	0x3e904d24	0.28183854
53	0xbebf2904	-0.3733598
54	0xbe8619ff	-0.26191708
55	0x3eb9883d	0.36236754
56	0x3eca477c	0.39507663
57	0x3eed80d2	0.46387345
58	0x3d82b957	0.06383007
59	0x3ec4f23c	0.3846606
60	0xbec81cd7	-0.39084503
61	0xbe475466	-0.19465789
62	0x3dad8a8c	0.08473691
63	0xbec5ba0b	-0.38618502
64	0xbdb1cf8e	-0.08682166
65	0xbdcfa747	-0.101393275
66	0x3ecc7e67	0.39940187
67	0x3daa18a2	0.083054796
68	0xbe27784c	-0.16354483
69	0x3dfc4902	0.12318613
70	0x3ebc32df	0.36757562
71	0xbe855b65	-0.2604629
