models/onnx_file_name_rand.onnx (onnx, 957 bytes, 6 tensors)

stack.0.bias f4 [5]
0	0xbf276607	-0.65390056
1	0xbf455cb4	-0.7709458
2	0x3f1883ce	0.5957612
3	0x3e987a98	0.29781032
4	0x3b64d9fa	0.0034919963

stack.2.bias f4 [5]
0	0x3f44f9d9	0.7694374
1	0x3f3df45d	0.74200994
2	0xbf3501c2	-0.7070581
3	0x3f14108e	0.5783776
4	0x3f518594	0.8184445

stack.4.bias f4 [3]
0	0xbf222173	-0.6333229
1	0xbf75e5a1	-0.9605351
2	0x3ef92933	0.48664245

22 f4 [4, 5]
0	0xbf50ec06	-0.81610143
1	0xbf26cf44	-0.6516001
2	0xbdf8d06e	-0.1214913
3	0x3f1f32c5	0.62186843
4	0x3f52203a	0.82080424
5	0x3e1bd572	0.15218142
6	0xbed5db9d	-0.41769114
7	0x3e9b6de3	0.30357274
8	0x3e8d3b16	0.27584141
9	0x3bea462e	0.0071494794
10	0x3f6e5ced	0.93110543
11	0x3f1d069f	0.6133823
12	0x3f5b66e4	0.85703874
13	0x3e6956d2	0.22787026
14	0x3f76c938	0.96400785
15	0x3edc25cd	0.4299759
16	0xbf7b9103	-0.98268145
17	0xbed8f05d	-0.42370883
18	0x3f2ecbce	0.6827973
19	0xbde8bf25	-0.11364583

23 f4 [5, 5]
0	0xbedb8122	-0.42871958
1	0x3e8bf9fe	0.27339166
2	0xbe86d161	-0.26331618
3	0x3da1f32b	0.07907709
4	0x3f062d9f	0.5241336
5	0x3f2e05bb	0.67977494
6	0xbf4a4306	-0.7900852
7	0x3cae2ef0	0.021262616
8	0x3e94fafb	0.29097733
9	0xbf31a13a	-0.6938664
10	0xbf7f195c	-0.9964807
11	0x3f6f209f	0.9340915
12	0x3f1da0af	0.6157331
13	0xbee75ad3	-0.4518648
14	0xbee23656	-0.4418208
15	0xbf423647	-0.7586407
16	0xbd1e33a5	-0.03862347
17	0x3f5d56af	0.86460394
18	0x3f54715e	0.82985485
19	0xbf0322ce	-0.5122498
20	0xbe575489	-0.21028341
21	0x3f70c33c	0.94047904
22	0xbee5c3f7	-0.44876072
23	0x3f602dcd	0.87569886
24	0x3f09bbf6	0.5380243

24 f4 [5, 3]
0	0x3f2d24b1	0.6763411
1	0x3ed91eb4	0.42406237
2	0xbec53e54	-0.38524115
3	0xbe95b980	-0.29243088
4	0xbf06fcb0	-0.5272932
5	0xbf520435	-0.8203767
6	0xbf1c6d5b	-0.61104363
7	0x3e6d2cae	0.23161575
8	0x3f5d3a12	0.86416733
9	0x3ec3ab83	0.3821679
10	0x3e00b5f4	0.1256941
11	0xbef1ea00	-0.4724884
12	0x3d5e6323	0.054293763
13	0x3f1bd814	0.60876584
14	0xbed1d7a0	-0.4098482
